{
  "class_names": [
    "Chu",
    "Qi",
    "Qin",
    "SanJin",
    "Yan"
  ],
  "img_size": [
    128,
    128
  ],
  "num_classes": 5,
  "model_architecture": "AncientTextCNN(\n  (features): Sequential(\n    (0): Conv2d(1, 32, kernel_size=(3, 3), stride=(1, 1), padding=(1, 1))\n    (1): BatchNorm2d(32, eps=1e-05, momentum=0.1, affine=True, track_running_stats=True)\n    (2): ReLU(inplace=True)\n    (3): MaxPool2d(kernel_size=2, stride=2, padding=0, dilation=1, ceil_mode=False)\n    (4): Dropout2d(p=0.25, inplace=False)\n    (5): Conv2d(32, 64, kernel_size=(3, 3), stride=(1, 1), padding=(1, 1))\n    (6): BatchNorm2d(64, eps=1e-05, momentum=0.1, affine=True, track_running_stats=True)\n    (7): ReLU(inplace=True)\n    (8): MaxPool2d(kernel_size=2, stride=2, padding=0, dilation=1, ceil_mode=False)\n    (9): Dropout2d(p=0.25, inplace=False)\n    (10): Conv2d(64, 128, kernel_size=(3, 3), stride=(1, 1), padding=(1, 1))\n    (11): BatchNorm2d(128, eps=1e-05, momentum=0.1, affine=True, track_running_stats=True)\n    (12): ReLU(inplace=True)\n    (13): MaxPool2d(kernel_size=2, stride=2, padding=0, dilation=1, ceil_mode=False)\n    (14): Dropout2d(p=0.25, inplace=False)\n    (15): Conv2d(128, 256, kernel_size=(3, 3), stride=(1, 1), padding=(1, 1))\n    (16): BatchNorm2d(256, eps=1e-05, momentum=0.1, affine=True, track_running_stats=True)\n    (17): ReLU(inplace=True)\n    (18): MaxPool2d(kernel_size=2, stride=2, padding=0, dilation=1, ceil_mode=False)\n    (19): Dropout2d(p=0.25, inplace=False)\n  )\n  (classifier): Sequential(\n    (0): Flatten(start_dim=1, end_dim=-1)\n    (1): Linear(in_features=16384, out_features=512, bias=True)\n    (2): BatchNorm1d(512, eps=1e-05, momentum=0.1, affine=True, track_running_stats=True)\n    (3): ReLU(inplace=True)\n    (4): Dropout(p=0.5, inplace=False)\n    (5): Linear(in_features=512, out_features=256, bias=True)\n    (6): BatchNorm1d(256, eps=1e-05, momentum=0.1, affine=True, track_running_stats=True)\n    (7): ReLU(inplace=True)\n    (8): Dropout(p=0.5, inplace=False)\n    (9): Linear(in_features=256, out_features=5, bias=True)\n  )\n)"
}